LunarLander/models/agent.pt (torch, 9637 bytes, 5 tensors)

network.0.weight f4 [128, 8]
-3.464362 0.43748704 -0.6335097 -0.44156492 1.0271779 0.12091487 -0.04933711 0.023239378
0.20987846 0.39646754 0.05394971 1.8414712 -0.2590405 -0.1514733 0.30156946 0.4915898
-4.8899293 -7.0011687 0.08906409 1.9777064 2.170355 0.2995308 0.21220674 0.32236788
4.2742877 -6.4244275 1.1307015 2.5492918 -1.8530865 0.3229485 -0.12944303 0.744721
5.6945796 -3.9569654 1.0374501 1.0717711 0.20018782 -0.26181817 0.20022464 0.016054764
3.086287 -0.2067624 1.1005754 -0.046725523 -3.2108953 0.13650683 -0.05338322 -0.014313929
5.2642856 -1.8544073 1.7652892 0.6010115 -1.1297994 -0.1881453 0.06646851 0.016405297
3.6958785 0.3116248 -0.9463071 -0.5573243 -2.2700393 -0.22302154 0.13624726 -0.091947824
-0.39621928 1.234126 -0.4161441 -1.5343989 0.40924388 0.44952902 0.019680114 0.09638282
-4.216488 -2.843351 -0.8956483 0.86442655 -0.32592818 0.07917321 0.002064917 0.20700264
0.16048981 1.3221823 -0.28091148 -2.328349 -0.05746268 0.4713025 0.3328358 0.27208266
5.5698533 -3.6531475 0.84351116 -0.0085039865 0.2495536 -0.14223437 0.17072168 0.006148804
0.26707247 0.013719989 2.1663477 -1.6503689 6.969988 -0.58354264 -0.20115791 -2.3582165
-1.7014027 -1.9798057 -0.37491617 -1.6843073 3.8082123 0.62091845 0.41321692 -0.17306252
-5.371007 -4.156473 -0.4424952 -0.43840012 1.3204492 0.1659499 0.08150459 0.16412972
0.5952833 -3.3792543 -0.5514583 -2.4029598 -0.6375244 0.22830829 0.5223014 0.3139353
-1.1848512 -0.22169834 1.9446439 7.682748 1.4157996 -1.813013 -0.009777344 0.70960885
4.5498724 -2.0651624 1.6845118 -0.7823234 -1.2326444 -0.27894804 0.089501515 0.09436471
-1.4198312 -1.072956 -0.6689258 -0.10816011 -0.8575695 0.27977425 -0.15084486 0.015590632
5.6559486 -1.5413041 1.9557843 0.40671632 -1.2565025 -0.041919585 0.13865578 0.14785588
-4.1294236 -5.871968 0.341996 1.4627377 2.1188471 -0.7253371 0.20830041 0.24728511
0.45790467 -4.3061185 0.36528262 2.4066634 -0.3913716 -0.35137823 0.30446628 0.665695
-0.6454342 0.83314747 -0.7110178 0.5544063 2.4898503 0.062509745 -0.10276631 -0.3280718
0.006482711 0.08919273 0.63765484 -0.18329288 -0.30374447 -2.3404214 -0.5112785 0.21655136
-0.41166675 -9.52314 0.084939405 1.7894739 -0.16290726 -0.39521873 0.25429317 0.4287988
5.057939 -7.7834516 0.10847152 1.5658324 -1.336599 -0.011591939 0.45524764 0.2389526
5.344322 -2.248194 1.9006194 -0.4344203 -1.3734268 -0.16270009 0.12005497 0.09114092
1.1347755 -1.0529401 -1.7490325 1.7897034 1.7228107 0.398608 0.25755018 0.34405193
-3.797773 -0.016040193 0.86743575 -0.0017138446 1.2969224 0.44557133 0.023196759 0.01585621
0.60006726 1.8540126 -0.3815406 -3.16058 -0.012538226 0.46751505 -0.47790334 -3.7210224
-0.071025945 1.9537327 0.025706569 -3.246658 0.9836973 0.93679833 -2.396259 1.0161465
-0.42915443 1.2336761 -0.09593004 2.2625694 -0.36462608 0.724209 -1.1202797 0.06885497
00000000: 1bb8 5dc0 4dfe df3e b12d 22bf cc14 e2be
00000010: 917a 833f 37a2 f73d b615 4abd 8260 be3c
00000020: 61ea 563e cbfd ca3e 5ffa 5c3d 54b5 eb3f
00000030: f5a0 84be d11b 1bbe 5067 9a3e a9b1 fb3e
00000040: 4d7a 9cc0 9309 e0c0 3c67 b63d 7c25 fd3f
00000050: 19e7 0a40 1a5c 993e b94c 593e 670d a53e
00000060: f7c6 8840 e994 cdc0 d4ba 903f 9927 2340
00000070: f031 edbf 8159 a53e b78c 04be 09a6 3e3f
00000080: ff39 b640 ec3e 7dc0 2acb 843f cc2f 893f
00000090: 09fe 4c3e 080d 86be b007 4d3e 4885 833c
000000a0: ba85 4540 86b9 53be a8df 8c3f 4363 3fbd
000000b0: 4f7f 4dc0 72c8 0b3e 5da8 5abd f884 6abc
000000c0: 0775 a840 385d edbf fff4 e13f e4db 193f
000000d0: 449d 90bf 29a9 40be a420 883d 6764 863c
000000e0: 4689 6c40 498d 9f3e 2f41 72bf ceac 0ebf
000000f0: 5348 11c0 c25f 64be 6784 0b3e 244f bcbd
00000100: 41dd cabe d7f7 9d3f d710 d5be 2f67 c4bf
00000110: 6a88 d13e ab28 e63e 3138 a13c 5b64 c53d
00000120: 78ed 86c0 76f9 35c0 3549 65bf 0f4b 5d3f
00000130: 0fe0 a6be 9025 a23d 8f53 073b 80f8 533e
00000140: 7157 243e 453d a93f a1d3 8fbe ac03 15c0
00000150: fd5d 6bbd 904e f13e 7469 aa3e 6b4e 8b3e
00000160: 3d3c b240 2bcd 69c0 59f0 573f 4e54 0bbc
00000170: fb8a 7f3e e3a5 11be aad1 2e3e e87b c93b
00000180: b9bd 883e cec9 603c 71a5 0a40 4a3f d3bf
00000190: 240a df40 0d63 15bf 57fc 4dbe 05ed 16c0
000001a0: 90c7 d9bf 466a fdbf 03f5 bfbe 6297 d7bf
000001b0: c0b9 7340 83f4 1e3f 2b91 d33e 4d37 31be
000001c0: 4adf abc0 d401 85c0 bb8e e2be fb75 e0be
000001d0: 7b04 a93f c5ee 293e e1eb a63d 9f11 283e
000001e0: 7d64 183f b445 58c0 5f2c 0dbf 18ca 19c0
000001f0: cd34 23bf a6c9 693e 8bb5 053f 21bc a03e
00000200: 34a9 97bf e404 63be 17ea f83f 12d9 f540
00000210: ec38 b53f cf10 e8bf 2731 20bc eda8 353f
00000220: 8e98 9140 9f2b 04c0 159e d73f 5946 48bf
00000230: 4bc7 9dbf 47d2 8ebe 924c b73d 4942 c13d
00000240: 07bd b5bf 9f56 89bf b93e 2bbf 0c83 ddbd
00000250: ad89 5bbf 923e 8f3e 1377 1abe da6f 7f3c
00000260: 88fd b440 7449 c5bf 2457 fa3f 1f3d d03e
00000270: 13d5 a0bf dfb3 2bbd c8fb 0d3e 8867 173e
00000280: 3d24 84c0 29e7 bbc0 1a1a af3e fd3a bb3f
00000290: 319b 0740 b1af 39bf b44c 553e 4f38 7d3e
000002a0: 7b72 ea3e b9cb 89c0 5306 bb3e c606 1a40
000002b0: dc61 c8be d9e7 b3be 01e3 9b3e fd6a 2a3f
000002c0: 2d3b 25bf 2749 553f 4305 36bf 92ed 0d3f
000002d0: b559 1f40 1c05 803d 2577 d2bd 07f9 a7be
000002e0: ec6c d43b aeaa b63d 593d 233f 21b1 3bbe
000002f0: 6584 9bbe 77c9 15c0 26e3 02bf a4bf 5d3e
00000300: fcc5 d2be c85e 18c1 b6f4 ad3d 7b0d e53f
00000310: 29d1 26be 1c5a cabe b732 823e 848b db3e
00000320: a3da a140 0912 f9c0 5126 de3d 326d c83f
00000330: ad15 abbf 1eec 3dbc 3816 e93e feaf 743e
00000340: b004 ab40 69e2 0fc0 7f47 f33f 566c debe
00000350: 73cc afbf da9a 26be 61df f53d 17a8 ba3d
00000360: 5340 913f bec6 86bf 4ce0 dfbf 0015 e53f
00000370: 1085 dc3f 5916 cc3e 9edd 833e 9327 b03e
00000380: b60e 73c0 b966 83bc 4510 5e3f 15a3 e0ba
00000390: 8e01 a63f ed21 e43e 2107 be3c e2e4 813c
000003a0: 029e 193f 4950 ed3f 4a59 c3be f146 4ac0
000003b0: 226d 4dbc 225e ef3e bfaf f4be 3b25 6ec0
000003c0: 0d76 91bd ea13 fa3f 9596 d23c 3fc9 4fc0
000003d0: 96d3 7b3f 04d2 6f3f 4f5c 19c0 1711 823f
000003e0: 21ba dbbe 19e9 9d3f f876 c4bd f0cd 1040
000003f0: 45b0 babe c365 393f 5365 8fbf d603 8d3d

network.0.bias f4 [128]
-0.2811568 -0.16151166 -0.37211996 -0.3696665 -0.4916932 0.35468894 -0.51553684 -0.027008088
1.8482832 0.13815528 2.058117 -0.43961284 -0.1951732 -1.0643053 -0.59035254 -0.8342746
0.4774097 -0.57700443 1.4880996 -0.7108316 -0.37996465 -0.13994277 0.44271463 0.2908054
1.5873692 -0.4479058 -0.6428798 1.6387557 -0.06787363 1.2791064 1.4839473 0.44077152
0.5308274 -0.032606203 1.9386123 -0.214835 -0.26568252 -0.2877228 0.07984837 -0.2703648
-0.06405623 0.30748236 0.5813738 -0.13392615 -0.4253489 0.010891006 -0.50534964 -0.4247162
-0.3175049 1.9926267 -0.506862 0.41445535 -0.6867372 -0.47911936 -0.24045856 -0.2428665
1.8027942 -0.41859755 -0.00021589673 0.3877021 -0.044089857 -0.5572149 -0.26684123 -0.33043686
-0.4314399 -0.08280556 -0.25325745 1.7963848 -0.33278316 -0.36885163 1.6333364 -0.5023872
0.45385537 1.7130331 0.5380647 -0.2224942 0.28804564 -0.132761 -0.49400485 -0.5855604
0.44865933 0.033558756 -0.21629077 1.4741389 -0.07892857 1.0674791 0.08805948 0.51006716
-0.3309856 -0.20298216 -0.73227775 0.37241164 -0.40264487 -0.3584939 -0.3167749 1.3110245
0.41226634 -0.28137764 -0.28841949 -0.24977082 0.63376504 1.9383345 0.24590226 -0.12156933
2.1223514 -0.36583287 -0.2520666 -0.01208661 1.5013232 -0.24765423 0.7491047 1.6447924
-0.0003788094 -0.23545788 0.09216779 1.3809687 0.9804515 -0.2648865 0.52415276 -0.26206708
-0.36834782 -0.61929345 -0.4999119 0.054972813 -0.2803663 -0.21802148 -0.2172418 -0.4730604
00000000: c9f3 8fbe 5063 25be 8286 bebe ed44 bdbe
00000010: 36bf fbbe ca99 b53e 39fa 03bf 1140 ddbc
00000020: 8b94 ec3f 9478 0d3e 30b8 0340 ef14 e1be
00000030: 7cdb 47be 283b 88bf 5821 17bf 0593 55bf
00000040: 0b6f f43e 90b6 13bf 0c7a be3f 0ff9 35bf
00000050: ba8a c2be 284d 0fbe 7eab e23e 72e4 943e
00000060: ea2e cb3f e953 e5be c593 24bf bfc2 d13f
00000070: 5401 8bbd c2b9 a33f fcf1 bd3f ceac e13e
00000080: 4ee4 073f 158e 05bd 7324 f83f b5fd 5bbe
00000090: 8a07 88be 6750 93be 8b87 a33d 416d 8abe
000000a0: ea2f 83bd 546e 9d3e ead4 143f f023 09be
000000b0: 55c7 d9be 3170 323c 985e 01bf 6774 d9be
000000c0: 0190 a2be 640e ff3f b5c1 01bf 7e33 d43e
000000d0: 02ce 2fbf 224f f5be c53a 76be ffb1 78be
000000e0: f6c1 e63f 6b52 d6be 5662 62b9 e480 c63e
000000f0: 9197 34bd a3a5 0ebf 6a9f 88be 052f a9be
00000100: b1e5 dcbe f695 a9bd f6aa 81be f0ef e53f
00000110: 8e62 aabe 1fda bcbe 2b11 d13f 739c 00bf
00000120: bb5f e83e ab44 db3f 9cbe 093f 85d5 63be
00000130: b87a 933e 80f2 07be 34ee fcbe 49e7 15bf
00000140: adb6 e53e e874 093d 547b 5dbe 95b0 bc3f
00000150: 4da5 a1bd 28a3 883f 8758 b43d c393 023f
00000160: f276 a9be 8eda 4fbe 8e76 3bbf bdac be3e
00000170: 7827 cebe 838c b7be 5230 a2be a7cf a73f
00000180: 9314 d33e bb10 90be b8ab 93be ecc3 7fbe
00000190: 6d3e 223f 581b f83f cdcd 7b3e 57f9 f8bd
000001a0: 9bd4 0740 724e bbbe e00e 81be eb06 46bc
000001b0: 5c2b c03f 1299 7dbe 53c5 3f3f 8f88 d23f
000001c0: f09a c6b9 df1b 71be 77c2 bc3d 95c3 b03f
000001d0: dffe 7a3f 349f 87be e02e 063f a82d 86be
000001e0: 1698 bcbe 048a 1ebf 74f4 ffbe 2c2b 613d
000001f0: 2c8c 8fbe 0641 5fbe a274 5ebe f934 f2be

actor.weight f4 [4, 128]
-0.23845993 0.5731618 -0.0024456016 -0.16482052 0.02035653 -0.3194092 -0.10824305 -0.050469812
0.01277072 -0.13606714 -0.11607584 0.18726574 -0.77594924 -0.7360792 -0.29896048 -1.2267876
1.3151176 -0.19976261 0.35916844 -0.12744701 -0.4158188 0.3146155 0.5760945 -1.1433889
0.7897796 -0.09407323 -0.13922586 0.7194506 -0.2863976 -0.33861798 -0.58392704 0.763293
0.473188 -0.21314688 -0.30354556 0.10304796 -0.44538954 -0.12226413 -0.0539323 -0.2439593
0.048136186 0.37936383 0.16580278 -0.473688 -0.8328763 -1.1580058 -0.14067875 -0.25201806
0.77491677 -0.15612775 -0.52493036 -0.2696763 -0.6700324 -0.037976414 -0.7392531 -0.15874934
-0.07409451 -0.14992762 -0.94900596 -0.5064926 -0.32157275 -0.17974247 -0.5440972 -0.81734085
-0.18311551 -0.24772604 -0.027051147 -0.0671691 -0.39316937 -0.31245375 0.320435 -0.38396797
-0.7013515 0.71398723 -0.45953622 -0.25667837 -0.18051668 -0.13884374 -0.3350111 -0.44851738
-0.109245084 0.15777351 -0.004172625 0.50768507 -0.5248666 -0.36460865 -0.1768783 -0.5442197
-0.070021205 -0.5593486 -1.0549812 -0.4141506 -0.5325872 -0.088813595 -0.55358005 0.46698138
-0.31446996 -0.0020624308 -0.42408124 0.13101794 0.37401998 0.08757614 -0.1516122 -0.016279232
-0.112068415 -0.23444349 0.2408622 -1.3056536 0.788425 -0.003264629 0.85356253 -0.32571778
-0.0912454 -0.0049686283 -0.3277907 0.5893054 -0.08023674 -0.1659707 0.07774199 -0.1419575
-0.5627586 -0.70856106 -0.166567 0.07402154 0.1281053 -0.19053878 -0.30505174 -0.34002286
-0.39804897 0.027546136 -0.18559164 0.5464797 0.71993476 0.43198642 0.8886719 0.6165763
-0.15388086 0.36684436 -0.16421577 0.53042054 -0.59753287 -0.533466 -0.41394466 -0.16618286
-0.3001879 0.879779 -0.34499648 0.47414497 0.036443554 0.04323006 0.06632744 0.25163713
-0.3185517 0.5259098 0.63949144 -0.60624254 -0.54399186 0.043258835 -0.3393166 0.21116152
0.61891496 -0.4559819 0.2561902 -0.3275537 0.10823518 -0.6562072 -1.0108337 -0.9385407
0.61303025 1.248388 -1.0196795 -0.50943273 -0.62551594 1.0741471 -0.24768646 -0.37781915
0.22691546 0.55555296 0.34677982 1.214768 -0.44137657 0.48356965 1.195313 -0.74953383
0.7966515 0.46178782 1.2799613 -0.64098173 0.24562673 -0.12511358 -0.16552638 0.25897253
-0.06703544 -0.17505845 0.5101309 0.16205738 0.00978615 0.33316022 -0.4234952 0.5533765
0.3873523 0.017490236 1.2060729 0.5975137 0.33849603 -0.26224995 -0.5281638 -0.025746692
0.8682426 -0.33744183 -0.14586404 -0.21301281 -0.49273306 0.7867695 -0.6974783 -2.2048454
0.16981202 0.8831442 -1.6364717 -1.481051 0.83548963 -0.1435372 0.25867406 -0.5398174
0.8039531 0.10467794 0.7097338 -0.05043097 -0.39834535 -0.02244018 -0.34074852 -0.10714329
-0.04535322 0.3683762 -0.903305 1.2815613 -0.4423753 -0.21139178 0.62056077 -0.33501247
0.0054771854 -0.85913 -0.5379052 -0.3217241 0.38356486 -0.34346092 -0.10067322 0.6151654
-0.060613606 -0.35359776 -0.24594031 -1.1338999 0.004531589 0.057952944 -0.40251252 -0.47582868
00000000: d72e 74be bbba 123f 6346 20bb b6c6 28be
00000010: bdc2 a63c 9a89 a3be 88ae ddbd 6fb9 4ebd
00000020: 483c 513c 2f55 0bbe 2cb9 edbd 97c2 3f3e
00000030: 9ca4 46bf b06f 3cbf 5911 99be 6007 9dbf
00000040: c655 a83f 928e 4cbe ede4 b73e 7881 02be
00000050: 34e6 d4be 4815 a13e ee7a 133f 915a 92bf
00000060: ff2e 4a3f 77a9 c0bd 3991 0ebe ea2d 383f
00000070: b5a2 92be 565f adbe 3e7c 15bf 2c67 433f
00000080: b345 f23e 2d43 5abe 536a 9bbe cf0a d33d
00000090: 190a e4be 9e65 fabd 1ee8 5cbd 77d0 79be
000000a0: 732a 453d fa3b c23e 34c8 293e 3c87 f2be
000000b0: 6237 55bf 8939 94bf 170e 10be 8308 81be
000000c0: f260 463f f4df 1fbe d661 06bf 0313 8abe
000000d0: 3e87 2bbf 288d 1bbd b13f 3dbf 308f 22be
000000e0: ddbe 97bd a086 19be 0ef2 72bf 80a9 01bf
000000f0: 2fa5 a4be 690e 38be f449 0bbf 403d 51bf
00000100: a282 3bbe e5ab 7dbe 5e9a ddbc f48f 89bd
00000110: 7f4d c9be f0f9 9fbe 0e10 a43e 7397 c4be
00000120: c68b 33bf dec7 363f 5548 ebbe 596b 83be
00000130: 5dd9 38be 0e2d 0ebe 9386 abbe 12a4 e5be
00000140: e3bb dfbd 618f 213e 84ba 88bb a6f7 013f
00000150: a85d 06bf fcad babe 961f 35be fb51 0bbf
00000160: 4767 8fbd 7831 0fbf a009 87bf 8c0b d4be
00000170: a257 08bf e7e3 b5bd 6cb7 0dbf 2f18 ef3e
00000180: 3502 a1be d929 07bb 2d21 d9be 9129 063e
00000190: 8c7f bf3e 1f5b b33d 3b40 1bbe 065c 85bc
000001a0: 2084 e5bd f411 70be 95a4 763e a81f a7bf
000001b0: 39d6 493f 63f3 55bb 1383 5a3f 7bc4 a6be
000001c0: dede babd e0cf a2bb 2fd4 a7be b8dc 163f
000001d0: 2953 a4bd 39f4 29be 3137 9f3d 4f5d 11be
000001e0: f310 10bf 4264 35bf 8a90 2abe 9b98 973d
000001f0: 092e 033e 991c 43be be2f 9cbe 7a17 aebe
00000200: 13cd cbbe 6fa8 e13c bc0b 3ebe 18e6 0b3f
00000210: a54d 383f 532d dd3e 0080 633f f2d7 1d3f
00000220: f292 1dbe 06d3 bb3e 2e28 28be a4c9 073f
00000230: eaf7 18bf 3a91 08bf 8ef0 d3be d72b 2abe
00000240: 3ab2 99be 3239 613f 61a3 b0be 21c3 f23e
00000250: d645 153d 0112 313d aed6 873d 95d6 803e
00000260: 3519 a3be 06a2 063f b6b5 233f b632 1bbf
00000270: 0d43 0bbf 2d30 313d e8ba adbe ba3a 583e
00000280: 3671 1e3f 7676 e9be 5d2b 833e 1eb5 a7be
00000290: 68aa dd3d 32fd 27bf 0063 81bf 3444 70bf
000002a0: 8def 1c3f 2ecb 9f3f dc84 82bf 2f6a 02bf
000002b0: d021 20bf a77d 893f 85a1 7dbe 8371 c1be
000002c0: 875c 683e b838 0e3f 208d b13e 857d 9b3f
000002d0: 1cfc e1be 7196 f73e 0400 993f 73e1 3fbf
000002e0: 5af1 4b3f 746f ec3e c6d5 a33f 6117 24bf
000002f0: 9385 7b3e c61d 00be bf7f 29be 0c98 843e
00000300: e049 89bd 8642 33be f097 023f 5ff2 253e
00000310: 1756 203c fa93 aa3e 5dd4 d8be 15aa 0d3f
00000320: 0a53 c63e af47 8f3c 9960 9a3f a8f6 183f
00000330: 5a4f ad3e a045 86be be35 07bf baea d2bc
00000340: 2645 5e3f 2dc5 acbe 625d 15be 0820 5abe
00000350: 8247 fcbe ba69 493f f08d 32bf 301c 0dc0
00000360: 34e3 2d3e bd15 623f e877 d1bf 1493 bdbf
00000370: a6e2 553f 6afb 12be ed70 843e 7931 0abf
00000380: dfcf 4d3f 6361 d63d 1db1 353f b490 4ebd
00000390: ecf3 cbbe 78d4 b7bc 9776 aebe f16d dbbd
000003a0: 4cc4 39bd ce9b bc3e ff3e 67bf 330a a43f
000003b0: 047f e2be 1677 58be 12dd 1e3f c186 abbe
000003c0: f679 b33b f2ef 5bbf 28b4 09bf 05b9 a4be
000003d0: 9d62 c43e 1cda afbe c32d cebd 7b7b 1d3f
000003e0: f945 78bd c40a b5be c7d7 7bbe a223 91bf
000003f0: b97d 943b 1160 6d3d 1f16 cebe d19f f3be

actor.bias f4 [4]
0.04943977 -0.27666193 0.1428927 0.0823831
00000000: 5b81 4a3d a2a6 8dbe 7752 123e 79b8 a83d

critic.weight f4 [1, 128]
-3.1200464 -0.48823935 -5.191989 -5.6153355 -7.9197273 -4.373576 -7.1346126 -3.9130826
1.6644546 -4.266839 1.7983111 -7.6922507 6.629515 -5.961907 -6.6527557 -5.0012116
3.8954265 -7.0034466 2.5853422 -8.191452 -5.007097 -0.63708967 -1.574736 -0.65239507
3.7391598 -5.9294214 -7.47854 1.850761 -3.6310017 2.9664655 3.1163387 -1.8570554
3.74105 -3.0705154 2.4990995 -2.5860858 -4.5411897 -3.2837906 -2.7182186 -3.2221832
-4.6298833 2.488051 2.6055245 -3.6313539 -2.8085582 -2.2710476 -5.9742484 -5.5689154
4.7623057 2.4493768 6.3450394 -2.7744467 -3.8682418 -7.360345 -2.4249096 -2.748797
2.7183905 -7.474114 -2.5150318 5.1950917 -3.9706993 -6.328304 -4.8480144 -3.5191393
-5.7222795 -0.86404735 -5.562902 1.5997846 -3.697299 -6.199125 3.10705 -6.2598586
2.5258708 1.741473 -2.9923623 -4.0335727 4.2588296 -0.78224605 -7.561037 -5.3401937
1.475015 -2.6076586 -0.5068258 2.485667 -3.482635 1.6557567 -2.8568938 -1.7988805
-3.7820127 -3.633951 -3.7473607 -1.4657085 -6.4729733 -4.799268 -4.107618 3.440492
-0.530541 -0.17286152 -2.266059 -6.1271057 -2.880216 1.5615379 -3.029998 -3.496233
1.8095337 -4.3338747 -2.240186 -3.8947217 3.3233368 -3.7069197 -1.6940448 2.6997643
-4.8062763 -2.6760993 -4.331858 1.8938535 3.1792297 -3.568445 5.2578363 -3.3810186
-5.3156404 -3.067899 -6.989215 -1.2525778 -0.46819714 -4.0089917 -2.7422025 -6.499835
00000000: d7ae 47c0 82fa f9be c624 a6c0 d4b0 b3c0
00000010: 686e fdc0 56f4 8bc0 bf4e e4c0 f26f 7ac0
00000020: d90c d53f f289 88c0 0f2f e63f eb26 f6c0
00000030: fd24 d440 f1c7 bec0 60e3 d4c0 ed09 a0c0
00000040: ab4e 7940 3c1c e0c0 3f76 2540 3010 03c1
00000050: 233a a0c0 4f18 23bf f390 c9bf 5d03 27bf
00000060: 654e 6f40 d2bd bdc0 3350 efc0 bde5 ec3f
00000070: 5562 68c0 92da 3d40 1872 4740 feb3 edbf
00000080: 5d6d 6f40 5383 44c0 3ff1 1f40 6e82 25c0
00000090: 6d51 91c0 a029 52c0 4bf7 2dc0 4038 4ec0
000000a0: 0128 94c0 3a3c 1f40 eac0 2640 1a68 68c0
000000b0: 6bbf 33c0 d858 11c0 0b2d bfc0 8e34 b2c0
000000c0: cf64 9840 97c2 1c40 900a cb40 8990 31c0
000000d0: 4691 77c0 f287 ebc0 b831 1bc0 4aec 2fc0
000000e0: 1cfa 2d40 f12b efc0 48f6 20c0 313e a640
000000f0: f01f 7ec0 7781 cac0 ef22 9bc0 9439 61c0
00000100: ea1c b7c0 3532 5dbf 4b03 b2c0 bec5 cc3f
00000110: 8ca0 6cc0 3b5f c6c0 e8d9 4640 c350 c8c0
00000120: dea7 2140 96e8 de3f dd82 3fc0 0713 81c0
00000130: 5548 8840 4741 48bf 04f4 f1c0 dee2 aac0
00000140: 4bcd bc3f e1e3 26c0 56bf 01bf 2b15 1f40
00000150: 7ee3 5ec0 d6ef d33f 59d7 36c0 b741 e6bf
00000160: 7f0c 72c0 a792 68c0 c2d4 6fc0 569c bbbf
00000170: 9922 cfc0 9a93 99c0 9b71 83c0 0531 5c40
00000180: 89d1 07bf 9c02 31be 1c07 11c0 4011 c4c0
00000190: 7555 38c0 79e0 c73f 7deb 41c0 48c2 5fc0
000001a0: cd9e e73f 1aaf 8ac0 355f 0fc0 1f43 79c0
000001b0: 8db1 5440 2c3e 6dc0 76d6 d8bf f0c8 2c40
000001c0: 04cd 99c0 3645 2bc0 959e 8ac0 cb69 f23f
000001d0: 8078 4b40 6761 64c0 3240 a840 9c62 58c0
000001e0: ba19 aac0 7558 44c0 a6a7 dfc0 7854 a0bf
000001f0: 89b7 efbe a949 80c0 3f80 2fc0 a6fe cfc0
