lunar-lander/models/agent.pt (torch, 9524 bytes, 5 tensors)

network.0.weight f4 [128, 8]
0	0x3ededb9c	0.43526924
1	0xc092381b	-4.569349
2	0x3e810a88	0.25203347
3	0x3f3a32f4	0.72734
4	0xbd0f85e4	-0.035039797
5	0xbe17541b	-0.14778177
6	0x3d0ddb9e	0.03463327
7	0xbe5ab52a	-0.21358171
8	0x3ea97553	0.33097324
9	0xc0857de8	-4.1716194
10	0x3e91694f	0.28400657
11	0x3f16fb0d	0.58976823
12	0xbdfdbb5b	-0.12389251
13	0x3e6b29d6	0.22965178
14	0x3c4cb8f7	0.012495271
15	0xbde4e9fa	-0.1117744
16	0xbfc8c642	-1.5685503
17	0xbe4a4878	-0.19754207
18	0xbeb0a90c	-0.34503973
19	0xbe7dcb29	-0.2478453
20	0x3fb2e24a	1.3975308
21	0x3c28ef2e	0.010310931
22	0x3e3145ae	0.17311737
23	0x3d395b27	0.045252945
24	0x3e3acba2	0.18241742
25	0x3f615270	0.88016415
26	0xbf0d53aa	-0.55205786
27	0xbf66f8ed	-0.9022358
28	0xbf439645	-0.7640117
29	0xbd963e4f	-0.07336103
30	0x3f32f71b	0.69908303
31	0x3eee4633	0.46537933
32	0x3cf3315a	0.029686619
33	0x3c1170c8	0.008876987
34	0x3a1a91a9	0.0005896339
35	0x3b018968	0.0019765738
36	0x3c3cf49e	0.011532931
37	0x3c1662f1	0.009178863
38	0x3bad9ef7	0.005298491
39	0xbe255ad7	-0.16147934
40	0x3fe815be	1.8131635
41	0xbd2c30a0	-0.04203856
42	0x3f607ee5	0.87693626
43	0xbd951fce	-0.07281457
44	0xbd8de26b	-0.069279514
45	0x3f1448bb	0.5792348
46	0x3e6e7389	0.2328626
47	0x3e3fe0ed	0.18738146
48	0x4016e2e5	2.3575985
49	0x3d6bd180	0.05757284
50	0x3f50771d	0.8143175
51	0x3b533a3a	0.003223075
52	0xbfad8015	-1.3554713
53	0xbe71cfaa	-0.23614374
54	0x3e895c01	0.26828006
55	0x3d145d94	0.036222056
56	0xbdfa3c74	-0.12218562
57	0xbf340c6b	-0.7033145
58	0xbf810d38	-1.0082159
59	0xbf6dac00	-0.92840576
60	0x400b54c4	2.1770487
61	0x40213ca5	2.5193264
62	0x3edc3b9d	0.4301423
63	0x3d597da7	0.053098347
64	0x3fc60500	1.5470276
65	0x3ddb4dbe	0.107081875
66	0x3f2ae192	0.66750443
67	0x3c4a4f06	0.012347942
68	0xbe8cfdfa	-0.2753752
69	0xbe8181d8	-0.25294375
70	0xbc157951	-0.009123162
71	0x3cf7b4f8	0.03023766
72	0xbc399836	-0.011327794
73	0xbe85b8a9	-0.26117447
74	0x3f594293	0.8486721
75	0xbf9bf5ca	-1.2184384
76	0xbe23182f	-0.15927194
77	0x3d921df5	0.0713462
78	0x3f2cd03f	0.6750526
79	0x3f3fc175	0.74904567
80	0x400c9f83	2.1972358
81	0x3dc31990	0.0952636
82	0x3f81001f	1.0078162
83	0xbd756d64	-0.059918776
84	0xbec02f59	-0.37536123
85	0xbe5d12a9	-0.2158915
86	0xbc8d6f34	-0.01726494
87	0x3dafa714	0.085767895
88	0xbe52c261	-0.20581962
89	0xbf012bcc	-0.50457454
90	0x3f732280	0.9497452
91	0xc0806d27	-4.0133243
92	0xc097644c	-4.7309933
93	0x3ef0c343	0.47023973
94	0xbfbe18d3	-1.4851326
95	0xbf2e6057	-0.6811575
96	0xbe3b3a3b	-0.18283932
97	0x3f065d9f	0.52486604
98	0xbf8e623b	-1.1123728
99	0x3f8dd281	1.1079866
100	0x4007703b	2.116225
101	0x3f46ea16	0.77700937
102	0xbe66f2d3	-0.22553568
103	0x3cc832cc	0.024438284
104	0x3fe3f100	1.7807922
105	0x3d98f936	0.07469408
106	0x3f272cd7	0.65302795
107	0x3cffe41d	0.031236703
108	0xbf755599	-0.95833737
109	0xbe3fd8a2	-0.18734983
110	0x3e4dc066	0.20092925
111	0x3cbf6b77	0.023366673
112	0xbe5ee578	-0.21767223
113	0xc0743eb9	-3.8163283
114	0x3f5f5c1a	0.8724991
115	0xbd9eebb2	-0.07759799
116	0xbdeef94b	-0.116686426
117	0xbee89bba	-0.4543131
118	0x3f264164	0.6494353
119	0x3eb76e9e	0.35826582
120	0xc026882f	-2.602062
121	0xbddc1e0d	-0.10747919
122	0xbde1544c	-0.110024065
123	0xbe0c6d96	-0.13713679
124	0x3fd570c4	1.6675038
125	0x3ea260c4	0.3171445
126	0x3db9ab95	0.0906593
127	0x3de03623	0.10947826
128	0x4005e08e	2.0918307
129	0x3d0bba1c	0.034113035
130	0x3f2cdbdf	0.67522997
131	0x3960756f	0.00021406052
132	0xbfb7f31e	-1.4371068
133	0xbe11158e	-0.14168379
134	0x3e60cd98	0.21953428
135	0x3db20520	0.08692384
136	0x3fbeb332	1.4898436
137	0x3aee91a6	0.0018201366
138	0x3f4c18af	0.79725164
139	0xbdb75d0f	-0.089532964
140	0x3e86caf5	0.2632672
141	0x3fb37f34	1.4023194
142	0x3e867fdd	0.26269427
143	0xbdc0d093	-0.094147824
144	0x40071672	2.110745
145	0xbd02f7b6	-0.031974517
146	0x3ef56777	0.479305
147	0xbd67e73a	-0.056617
148	0xbf4c56c8	-0.7981992
149	0xbe9c5dae	-0.30540222
150	0x3d1bacae	0.038006477
151	0x3c52223b	0.012825544
152	0x3cdad2d8	0.026711866
153	0xbe328371	-0.17432953
154	0xbf1851ca	-0.594998
155	0x3e349aae	0.1763713
156	0x3f9a387b	1.2048486
157	0xbfd0757a	-1.6285851
158	0xbeee6ad3	-0.46565875
159	0x3cb569fd	0.022145266
160	0xc015f0cd	-2.3428223
161	0xbee167b6	-0.44024438
162	0x3c64fec3	0.013976756
163	0x3e01331f	0.12617157
164	0x3f841012	1.0317404
165	0x3fb68082	1.4257967
166	0x3e75a1f6	0.23987564
167	0x3cf9f6aa	0.030513126
168	0xbe9a98b3	-0.30194625
169	0x3fe98b9e	1.8245733
170	0x3e800425	0.25003162
171	0xc0491666	-3.141992
172	0xc0268a05	-2.602174
173	0xbf4bd386	-0.79619634
174	0xbfa3c146	-1.2793357
175	0xbfa4410d	-1.2832352
176	0x3fefeb3a	1.874366
177	0xbc9973ca	-0.01873197
178	0x3f4c938d	0.79912645
179	0xbd30334c	-0.04301767
180	0xbecb0aab	-0.39656577
181	0x3f2014ba	0.62531626
182	0x3e6180b6	0.22021756
183	0x3e439365	0.19099195
184	0x3ff751b2	1.9321806
185	0x3d9acfd9	0.07559175
186	0x3f43dbd3	0.765073
187	0xbb917805	-0.0044393563
188	0xbf92d167	-1.1470155
189	0xbe0ee75f	-0.13955449
190	0x3e673616	0.22579226
191	0x3d9d4322	0.0767882
192	0x3f8a7727	1.0817612
193	0xbc08bf2a	-0.008346358
194	0x3ebfb55e	0.3744306
195	0x3ac7b0e5	0.0015235214
196	0x3ed13526	0.40860862
197	0x3f6b1903	0.9183504
198	0x3f01c23e	0.50687015
199	0x3eb47753	0.35247287
200	0xbfcd05ee	-1.6017435
201	0xbe52e217	-0.20594059
202	0xbec6b0d5	-0.38806787
203	0xbe4c4bb4	-0.19950753
204	0x3febecff	1.84317
205	0x3e4ac8d4	0.19803172
206	0xbca65625	-0.020304749
207	0x3d6a0683	0.057135116
208	0x3ddc8545	0.10767607
209	0x3f9fbc11	1.2479268
210	0xbed14268	-0.40870976
211	0xbffa5550	-1.9557285
212	0xbf3debbc	-0.7418783
213	0xbea5d504	-0.3238908
214	0x3f3ab9ec	0.72939944
215	0x3ed301fb	0.41212448
216	0x3ff4af53	1.9116005
217	0xbe98d7fa	-0.29852277
218	0x3f31ecd0	0.6950197
219	0xbebf08f7	-0.37311527
220	0xbfb6be74	-1.4276872
221	0xbf3ab5f8	-0.7293391
222	0x3e2e8c93	0.17045812
223	0x3e371804	0.17880255
224	0x40009006	2.0087905
225	0x3c7339ab	0.014845292
226	0x3f3d6bcf	0.7399263
227	0xbcee8502	-0.029116157
228	0xbfb5898b	-1.41826
229	0xbe5972cb	-0.21235196
230	0x3e5fa0fc	0.21838754
231	0x3d9dbae6	0.07701664
232	0xbdb0e079	-0.08636565
233	0xbfa1f7cb	-1.2653745
234	0xbfaa98ba	-1.3327858
235	0xbfc6b199	-1.5522949
236	0x401ba824	2.4321375
237	0x40064618	2.0980282
238	0x3f0d5bec	0.55218387
239	0x3d4a780f	0.049430903
240	0xc00d05a1	-2.2034686
241	0x3d397bef	0.045284208
242	0xbf3a6767	-0.7281403
243	0xbdd193ab	-0.102332436
244	0x3faee87d	1.36647
245	0x3d007440	0.031360865
246	0x3e9b6a7d	0.30354682
247	0x3e01033d	0.12598892
248	0x3d0b6bf9	0.034038518
249	0x3f2906fe	0.66026294
250	0x3f73d981	0.9525376
251	0x3f51b333	0.8191406
252	0xbfbb2156	-1.4619548
253	0xbfef74c0	-1.8707504
254	0xbea1be68	-0.3159058
255	0x3b7f9c6f	0.0039003154

network.0.bias f4 [128]
0	0x3f9936a6	1.1969802
1	0x3fa8df0e	1.3193071
2	0xbddb9c4a	-0.10723169
3	0x3fd1493d	1.6350476
4	0xbd78c2f2	-0.06073279
5	0xbd9bc5d6	-0.076060936
6	0xbd4a85de	-0.049444072
7	0xbefde52e	-0.49588913
8	0xbd5eb91d	-0.054375757
9	0xbee4552a	-0.44596225
10	0xbdc9b70d	-0.09849367
11	0x3e75e4b3	0.24013023
12	0x3e3e55c2	0.18587402
13	0xbd32d95b	-0.043664318
14	0x3fad3394	1.3531365
15	0xbe36e0be	-0.1785917
16	0xbd0e76fd	-0.034781445
17	0xbde3a26a	-0.111149624
18	0xbd9eb0b1	-0.07748545
19	0x3ee4a2b8	0.44655395
20	0xbe7e2ad2	-0.24821022
21	0x3f885ca6	1.0653274
22	0xbd72a852	-0.059242554
23	0xbd508db6	-0.050916396
24	0xbd542954	-0.051797226
25	0xbe09d5ab	-0.13460414
26	0x40002117	2.0020196
27	0xbd88958b	-0.06669148
28	0xbd165428	-0.03670135
29	0xbf1e338b	-0.617974
30	0xbdf15e50	-0.11785567
31	0x3ea5a1ea	0.32350093
32	0xbbe7ea05	-0.007077458
33	0x3fe82452	1.8136084
34	0xbf079c06	-0.5297245
35	0x3fa8f933	1.320105
36	0x3e892302	0.2678452
37	0xbe6d494d	-0.23172493
38	0xbd5d227c	-0.053987965
39	0x3f8a8393	1.0821403
40	0x3fdf22ba	1.7432473
41	0xbe080c81	-0.1328602
42	0xbd24a933	-0.040200423
43	0x3c7fb0be	0.015606103
44	0x3eecfeb8	0.46288085
45	0xbc257f88	-0.010101207
46	0xbd29a46d	-0.041416574
47	0xbe0fb315	-0.14033158
48	0xbdd1f1ba	-0.10251184
49	0xbd7d91f8	-0.061906785
50	0x3f8f63e2	1.1202357
51	0xbe134712	-0.1438258
52	0xbe0347df	-0.12820385
53	0x3f928537	1.1446904
54	0xbe1ce41d	-0.15321393
55	0xbd97846a	-0.07398303
56	0x3ede81c7	0.43458387
57	0xbdea5acc	-0.114430994
58	0xbdd4a9b1	-0.103839286
59	0x3e98f030	0.2987075
60	0xbe0ae229	-0.13562836
61	0x3f89f55e	1.0778005
62	0xbdaa2c64	-0.08309248
63	0x3f324c00	0.69647217
64	0xbd47e274	-0.048799947
65	0x3e48baa3	0.19602446
66	0xbe2baee5	-0.16765936
67	0xbd9d4c14	-0.076805264
68	0x3cd19de5	0.025587985
69	0x3e45865f	0.1928954
70	0xbf24d0f4	-0.6438134
71	0x3eba584c	0.3639549
72	0xbd1f3021	-0.03886426
73	0xbc92987d	-0.017894978
74	0xbdb5d1f7	-0.08877938
75	0x3eb94931	0.36188653
76	0xbddae45a	-0.10688086
77	0x3e11fc90	0.14256501
78	0x3f6ed149	0.93288094
79	0xbce9139d	-0.028451735
80	0x3c0145b7	0.0078901565
81	0x3f9d01c3	1.2266163
82	0x3fe27b59	1.7693893
83	0xbe1298f0	-0.14316154
84	0x3ec035b9	0.37540987
85	0xbe903712	-0.28167015
86	0xbe236d17	-0.15959583
87	0x3fd04a78	1.6272726
88	0x3fb7304b	1.4311613
89	0xbe105552	-0.14095047
90	0x3d7b6171	0.061372224
91	0xbe169d1c	-0.1470837
92	0xbdb66834	-0.08906594
93	0xbd512913	-0.051064562
94	0xbe162439	-0.14662255
95	0xbdcbfbd2	-0.0996014
96	0x3e5e9e0c	0.21739978
97	0xbd962c37	-0.07332652
98	0xbf2444bd	-0.64167386
99	0xbdc1ae7a	-0.09457107
100	0x3f73563b	0.9505345
101	0x3ffa7f21	1.9570047
102	0xbe109c95	-0.14122231
103	0xbe9130f1	-0.28357652
104	0xbcae1138	-0.021248445
105	0xbd3abb69	-0.045588885
106	0xbdb3c041	-0.08776904
107	0x3d5df334	0.054187015
108	0x3e6da388	0.23206913
109	0x3e4be9ff	0.19913481
110	0xbe331deb	-0.17491882
111	0xbd30317d	-0.043015946
112	0xbc8dd02f	-0.017311184
113	0xbdc97227	-0.09836226
114	0x3f9abc2a	1.2088673
115	0xbe27fa6b	-0.1640412
116	0x3fc5cf8e	1.5453966
117	0x3aadc31a	0.0013256997
118	0xbd491c2e	-0.04909914
119	0xbd43e2fd	-0.047823895
120	0x3fde1e92	1.7353079
121	0x3bf1ed64	0.0073830355
122	0x3fd67227	1.6753587
123	0x3fa535a7	1.2906998
124	0x3c286a90	0.010279313
125	0xbd40bd81	-0.047055725
126	0xbcfcc19e	-0.030854043
127	0x3f71bf17	0.94432205

actor.weight f4 [4, 128]
0	0x3e21616a	0.15759817
1	0x3e6b7ecb	0.22997586
2	0x3e907bf6	0.28219575
3	0x3dce5053	0.100739144
4	0xbc16a943	-0.009195629
5	0x3da193cc	0.07889518
6	0xbd22e209	-0.039766345
7	0xbdc3abc0	-0.09554243
8	0x3ddd0452	0.1079184
9	0x3e8a02fe	0.26955408
10	0x3d5719cc	0.052514836
11	0xbf07966a	-0.5296389
12	0xbdc27aae	-0.094960555
13	0xbd3a72b8	-0.04551956
14	0x3e209a0c	0.15683764
15	0x3e679c32	0.22618178
16	0x3e19c508	0.15016568
17	0xbd391ac9	-0.04519156
18	0xbc8a3374	-0.016870238
19	0xbe976a8f	-0.29573485
20	0x3e444571	0.19167115
21	0xbf42211d	-0.75831777
22	0x3cee2e26	0.02907474
23	0x3ddb77bc	0.10716197
24	0x3e1aad1e	0.15105101
25	0x3eb339da	0.35005075
26	0xbe4bf4a4	-0.19917542
27	0x3d9ccc5e	0.076561674
28	0x3d76c599	0.060247038
29	0x3e0a0da6	0.13481769
30	0xbe6add34	-0.22935945
31	0xbe8dc0fc	-0.27686298
32	0x3dcfea9c	0.1015217
33	0xbdbad225	-0.09122113
34	0x3e84aece	0.25914615
35	0x3e7013d1	0.2344506
36	0xbe96aef4	-0.29430354
37	0xbcc6f963	-0.024288839
38	0xbd763475	-0.06010862
39	0x3cd3e848	0.025867596
40	0x3cfd1f9d	0.030898863
41	0x3da6c9c5	0.08143953
42	0xbdb2a4e8	-0.087228596
43	0x3d3a5515	0.045491297
44	0xbe825687	-0.2545664
45	0xbf2953ce	-0.661435
46	0x3cdd3332	0.02700195
47	0xbd4065d6	-0.04697212
48	0x3c03e9b3	0.008051324
49	0x3e9828e3	0.29718694
50	0x3dfb2594	0.12263027
51	0x3e825277	0.2545354
52	0xbe1e12f5	-0.15436919
53	0xbd000bdc	-0.03126131
54	0x3eb32d54	0.3499552
55	0xbe032b10	-0.12809396
56	0xbeda2a88	-0.42610574
57	0x3a872769	0.0010311428
58	0xbe5178a5	-0.20456178
59	0x3ebdae88	0.3704722
60	0x3d9610c8	0.073274195
61	0x3f178ece	0.5920228
62	0x3e70e60f	0.2352526
63	0x3ea1bf02	0.3159104
64	0x3e39045c	0.18068069
65	0x3e0aea7b	0.1356601
66	0x3d87fd41	0.06640101
67	0x3d7e0704	0.06201841
68	0xbde1aa8e	-0.11018859
69	0xbe96f525	-0.29483905
70	0x3e99b18f	0.3001828
71	0x3ca4ae4f	0.020102648
72	0x3dafb999	0.08580322
73	0xbca7dafc	-0.020490162
74	0x3db1ec1f	0.08687615
75	0xbe5ee27d	-0.21766086
76	0xbe95a1a4	-0.29224885
77	0x3e393f78	0.18090618
78	0x3e162857	0.14663826
79	0x3ccb53e6	0.02482028
80	0x3d9821f4	0.07428351
81	0xbf66dfb9	-0.90185124
82	0xbce884cd	-0.028383637
83	0x3e0ff46b	0.14058082
84	0xbe181139	-0.1485032
85	0x3cfd8a17	0.030949635
86	0x3e718cab	0.23588817
87	0x3f39624b	0.7241561
88	0xbf4a35ee	-0.7898854
89	0x3ecf831b	0.40529713
90	0xbe9783fc	-0.29592884
91	0xbde070e9	-0.10959036
92	0x3e92445d	0.28567782
93	0x3af3f7bd	0.001861326
94	0x3e034225	0.12818201
95	0xbc025cc8	-0.007956691
96	0xbe321d80	-0.17394066
97	0xbbb40e97	-0.0054949033
98	0xbe673e6f	-0.2258241
99	0x3dbf6ce8	0.09346944
100	0x3db39e3f	0.087704174
101	0xbe4e1610	-0.20125604
102	0x3e1049d6	0.14090666
103	0x3d8efeaa	0.06982167
104	0xbe22feca	-0.15917507
105	0x3e8a2929	0.26984528
106	0x3be9a11e	0.0071298024
107	0xbe9fec9b	-0.31235203
108	0xbec3151d	-0.38102046
109	0xbe262547	-0.16225158
110	0x3e412819	0.18862952
111	0x3f0fd522	0.5618459
112	0x3e042884	0.1290608
113	0x3e263824	0.16232353
114	0x3e33e545	0.17567928
115	0x3d4304b1	0.047611896
116	0x3e7bd42d	0.24592657
117	0xbe177990	-0.14792466
118	0xbc1357de	-0.008993117
119	0xbe294276	-0.16529259
120	0x3d62ab08	0.05533889
121	0x3de7744f	0.11301481
122	0x3ddddbd6	0.10832946
123	0x3e549d38	0.20763099
124	0x3e232f58	0.15936029
125	0x398e924c	0.0002719335
126	0x3c123d3e	0.008925734
127	0x3e3f180a	0.18661514
128	0xbe3ff146	-0.18744382
129	0xbe704c36	-0.23466572
130	0xbf876c85	-1.0579993
131	0x3e1d2c9a	0.15349045
132	0xbb8db91b	-0.004325045
133	0xbe037685	-0.1283818
134	0x3d6e10fe	0.058121674
135	0xbf770a12	-0.9649974
136	0xbe1935c0	-0.1496191
137	0xbda26478	-0.07929319
138	0xbe00e820	-0.12588549
139	0x3f79e906	0.9762119
140	0xbefda024	-0.4953624
141	0xbd0043d3	-0.031314682
142	0x3e3b2935	0.18277438
143	0xbe97a82c	-0.29620492
144	0x3df29104	0.11844066
145	0xbea3a598	-0.31962276
146	0x3e88b8df	0.26703545
147	0x3e5e524c	0.21711081
148	0xbf167d6c	-0.5878513
149	0x3e4116c8	0.18856347
150	0xbe31f421	-0.17378284
151	0x3e03bed2	0.12865761
152	0xbeb9c7e8	-0.3628533
153	0xbf3b3597	-0.73128647
154	0x3e534729	0.20632614
155	0x3e0475d7	0.12935577
156	0x3e892b63	0.26790914
157	0xbf6e2f64	-0.9304106
158	0xbd0a46ea	-0.033759035
159	0x3f8b3146	1.0874412
160	0x3f37dbfd	0.7182005
161	0x3d0f3b2f	0.03496855
162	0xbdee25b8	-0.11628288
163	0xbf0eeb6b	-0.5582797
164	0x3e6ce3aa	0.23133722
165	0xbf972d2d	-1.1810662
166	0xbdd2bba0	-0.10289693
167	0xbece215b	-0.40259823
168	0xbbfce545	-0.0077177607
169	0xbda49a9f	-0.08037304
170	0xbd548744	-0.05188681
171	0xbe76c15e	-0.24097201
172	0x3f8fd5b0	1.1237087
173	0xbebaee20	-0.365098
174	0xbd4447b0	-0.04791993
175	0xbe500f79	-0.20318402
176	0xbdbf22b3	-0.0933279
177	0xbdb312de	-0.08743833
178	0xbe550832	-0.20803908
179	0xbf0dc870	-0.5538397
180	0xbde24984	-0.11049178
181	0x3e2d1bde	0.16905162
182	0xbeebd417	-0.4606025
183	0xbc9831d4	-0.018578447
184	0x3e0d3ca8	0.1379267
185	0xbe221b69	-0.15830769
186	0xbdf9c794	-0.1219627
187	0xbf942630	-1.1574154
188	0xbe99876d	-0.29986134
189	0x3f3973d5	0.7244237
190	0xbec0de74	-0.37669718
191	0xbf9611a6	-1.1724136
192	0x3c2ab77e	0.0104197245
193	0x3dfb89f8	0.12282175
194	0xbdd6e953	-0.10493722
195	0xbda41561	-0.0801189
196	0x3dc7bcce	0.097528085
197	0xbf1a751d	-0.6033495
198	0xbe7389d5	-0.23783047
199	0x3f84312f	1.032751
200	0xbe72cbf3	-0.23710613
201	0x3ec7813b	0.38965783
202	0xbeae6c8f	-0.340672
203	0x3f7bee5d	0.9841059
204	0x3eb5dd27	0.35520288
205	0xbf03f63b	-0.5154759
206	0x3d60a89d	0.054848302
207	0x3f2a9cb8	0.66645384
208	0x3e4d247a	0.20033446
209	0x3ee2f553	0.44327793
210	0x3e13aa35	0.14420398
211	0xbef4775b	-0.4774731
212	0x3f8cf20c	1.1011367
213	0xbf1f6698	-0.6226592
214	0xbec31c74	-0.38107646
215	0x3da07cf6	0.078363344
216	0x3e405046	0.18780622
217	0xbec51021	-0.38488868
218	0x3e88413b	0.26612267
219	0xbe200fb4	-0.1563099
220	0xbf5fa6bb	-0.87363786
221	0x3e4091c1	0.188056
222	0xbf2fbc47	-0.68646663
223	0xbe82be0e	-0.25535625
224	0x3f21afee	0.6315907
225	0xbc0ff5ed	-0.008786661
226	0x3d8c15f6	0.06840126
227	0xbe8a0aaa	-0.2696126
228	0xbd9ecfce	-0.07754479
229	0x3e738408	0.23780835
230	0xbf51320b	-0.81716985
231	0xbf818c3d	-1.0120922
232	0x3f20007e	0.6250075
233	0x3e821b9c	0.2541169
234	0xbc2f5a9c	-0.010702755
235	0x3e6a7a71	0.2289827
236	0x3f12fb1b	0.57414407
237	0xbf03753e	-0.5135077
238	0xbeb59242	-0.35463148
239	0xbe98fe8a	-0.29881698
240	0x3dd8e74e	0.10590993
241	0xbdb5a693	-0.08869662
242	0xbd855b4d	-0.06511555
243	0xbecff6f1	-0.4061809
244	0xbea11aa6	-0.31465644
245	0x3df530bc	0.11972186
246	0x3e1b2acf	0.15153049
247	0xbd7079c0	-0.05870986
248	0xbe8c1c23	-0.27365217
249	0xbfaf44ef	-1.3692912
250	0xbd8da105	-0.06915478
251	0xbeab7c71	-0.3349338
252	0x3e45215c	0.19251007
253	0x3f18c67e	0.59677875
254	0xbe673c3a	-0.22581568
255	0xbea87253	-0.32899722

actor.bias f4 [4]
0	0xbebf1c91	-0.37326482
1	0x3e74e6cc	0.23916167
2	0x3e4816f0	0.1954
3	0xbd7f582e	-0.062339954

critic.weight f4 [1, 128]
0	0x401c8bb4	2.4460268
1	0x4013205b	2.2988498
2	0xbfa8ce22	-1.3187907
3	0x3f9e127e	1.2349393
4	0x3d248803	0.040168773
5	0xbfe9e295	-1.8272272
6	0xbfe424ac	-1.7823691
7	0xc001771a	-2.0228944
8	0xbfaa6fec	-1.3315406
9	0xbfa51d43	-1.2899555
10	0xbff00e54	-1.8754373
11	0x409c9586	4.8932524
12	0xbfb6917f	-1.4263152
13	0xbfb099f1	-1.3796979
14	0x3fe1cd62	1.7640803
15	0xc023d0bf	-2.5596159
16	0xc0024511	-2.0354655
17	0xbfd11a08	-1.6336069
18	0xc00733c3	-2.1125343
19	0xbf8b4955	-1.0881754
20	0xc013a303	-2.3068244
21	0x401feaf6	2.4987159
22	0xbfc78a27	-1.5589036
23	0xbfdabb00	-1.7088318
24	0xbf81556d	-1.0104195
25	0xbfbf42b0	-1.4942226
26	0x3fc4aaac	1.5364585
27	0xbff6f643	-1.9293903
28	0xbfe76dc6	-1.8080375
29	0xc0395ece	-2.8964114
30	0xc0154438	-2.3322887
31	0xbfced316	-1.6158168
32	0xbfbf6e07	-1.4955453
33	0x3fb637b6	1.4235752
34	0xbff79da7	-1.9344987
35	0x3f82182c	1.0163627
36	0xbedaae48	-0.4271109
37	0xbfae944a	-1.3639004
38	0xc004a801	-2.0727541
39	0x3fe0c040	1.755867
40	0x3fa71977	1.3054646
41	0xc01a6d4b	-2.4129207
42	0xbf8e7a72	-1.1131117
43	0xbf8154f8	-1.0104055
44	0xbfa5c8ce	-1.2951906
45	0x40d8cb36	6.774806
46	0xbfdce915	-1.7258631
47	0xc0205465	-2.505151
48	0xc00d62a4	-2.2091455
49	0xbfd64f27	-1.6742905
50	0x3fafa60c	1.3722548
51	0xc01500ad	-2.3281662
52	0xc0184e94	-2.379796
53	0x404a0da7	3.1570833
54	0xc002791f	-2.0386426
55	0xc00c8078	-2.195341
56	0xbfa7c381	-1.3106538
57	0xc019516c	-2.3955946
58	0xc021ca3a	-2.527968
59	0x3f66d6ff	0.9017181
60	0xbf9c0132	-1.2187865
61	0x409396c8	4.612156
62	0xbfba37d7	-1.4548291
63	0x3fa92656	1.3214824
64	0xbfc4c0c8	-1.5371332
65	0x40676992	3.6158185
66	0xc01a888b	-2.414584
67	0xbfd39969	-1.6531192
68	0xbf9ac70c	-1.2091994
69	0xbf7f8b44	-0.9982188
70	0xc0069529	-2.102854
71	0xbf75f513	-0.9607708
72	0xbfdd5c68	-1.7293825
73	0xbfdefb84	-1.7420506
74	0xbf2e6f94	-0.68139005
75	0xbf3ec527	-0.7451958
76	0xbfd43c0f	-1.6580828
77	0xbfb06b20	-1.3782692
78	0x404f1d2f	3.2361562
79	0xbfcc6bff	-1.5970458
80	0xbfdbea3f	-1.7180861
81	0x40382776	2.8774085
82	0x3fb03e5c	1.376903
83	0xc022b4f8	-2.5422955
84	0xbfc39e01	-1.5282594
85	0xc00307e8	-2.0473576
86	0xc0125886	-2.286653
87	0x4093555b	4.6041694
88	0x40272d3e	2.6121364
89	0xc004459a	-2.0667481
90	0xbfe5fe66	-1.7968261
91	0xc02b48c0	-2.6763153
92	0xbf89b466	-1.0758178
93	0xbfb3922f	-1.4028987
94	0xc0233b3e	-2.5504909
95	0xbfaace8d	-1.3344284
96	0xbd3d8416	-0.046268545
97	0x3c95831f	0.018251
98	0xbfeb51e4	-1.8384366
99	0xbfbbba3d	-1.466621
100	0x40564fcb	3.3486202
101	0x3fc0f7d6	1.5075634
102	0xc001bf00	-2.0272827
103	0xc0228120	-2.5391312
104	0xbfb61178	-1.4224081
105	0xbfacea81	-1.3509065
106	0x3d8e3836	0.06944315
107	0xbfd91094	-1.6958184
108	0xbfe6840b	-1.8009046
109	0xbf8242c8	-1.017663
110	0xc01b1caf	-2.4236257
111	0x408bcc28	4.3686714
112	0xbfad876a	-1.355695
113	0xbfe937ac	-1.8220115
114	0x400a5883	2.1616523
115	0xc01570ff	-2.3350217
116	0x3fe3edc8	1.780694
117	0xbf9f0528	-1.2423449
118	0xbffbeb77	-1.9681233
119	0xbff7cb6d	-1.9358956
120	0x3fea5988	1.8308573
121	0xbf1aa134	-0.60402226
122	0x3f9f4c11	1.2445089
123	0x3f85d066	1.0454223
124	0xbf80c3ba	-1.0059731
125	0xbfc022e5	-1.5010649
126	0xbfb2dade	-1.3973043
127	0x40456cde	3.0847697
